train_result/ETTh1_GLinear_ETTh1_ftM_sl336ll48pl24_dm512nh8el2dl1_df2048_fc1ebtimeFdtTrue_Exp_0/checkpoints/checkpoint.pth (torch, 488038 bytes, 6 tensors)

Linear.weight f4 [336, 336]
-0.013960496 -0.03971266 -0.0058454047 0.016865376 0.0036430736 -0.035984267 -0.046637278 0.033902198
-0.028815446 -0.050974783 0.032756492 -0.047484644 0.039432347 -0.007172832 0.0260784 -0.020268725
-0.00042260505 -0.008993221 0.0063793752 -0.00468626 0.016225083 -0.016735507 0.03981656 0.0017335475
-0.010026297 -0.07781977 0.028791131 -0.042447276 -0.047014255 -0.030562803 0.008829938 -0.0023541776
0.024703357 -0.0016163568 0.019146373 0.043427985 -0.039667286 -0.025898363 -0.048367012 -0.04132336
0.033052564 0.09401702 0.070863485 -0.014417409 0.064763345 0.06286097 0.06416958 -0.04732197
0.01697465 -0.044535406 0.022864966 0.037777893 0.0026162392 0.008592215 0.01901516 -0.065899566
-0.028561808 -0.029259996 0.052779656 0.035729278 -0.045807566 0.015696626 0.009638497 0.022637194
0.072953306 -0.008042618 0.004591135 -0.02029542 -0.009149703 -0.014099358 -0.018528724 0.03527096
-0.003194629 -0.027926471 -0.02055354 -0.023693303 0.06619919 -0.003825222 -0.024630306 0.041446056
-0.036436178 -0.0062051066 -0.0024610893 -0.031728532 -0.034590296 -0.007198894 -0.012590307 -0.04231311
0.008074399 0.07101179 0.0146597605 -0.0069586183 -0.042767446 -0.035651166 0.0218128 0.017005617
-0.027412506 -0.027282393 -0.012374242 -0.010840324 0.050110277 0.02119343 -0.052196257 0.0037603255
-0.01240599 -0.0498501 -0.008280391 0.030425444 0.03846005 0.033221707 -0.0043557324 -0.014545356
-0.012627278 -0.03210738 -0.020960877 -0.08111147 0.026322933 -0.008368132 -0.029291669 0.05041237
0.012564922 -0.062267587 -0.058905233 0.04367997 -0.027532386 0.07340967 0.05616415 0.06319633
-0.019812377 -0.04113938 -0.012187947 0.047648475 -0.0188778 -0.02563241 0.028530588 0.026538154
0.0484093 0.064425536 0.023053352 -0.039666306 -0.02157813 0.0053851544 -0.022473149 -0.063019365
0.055530764 -0.003599608 -0.07701374 -0.00797869 0.058908705 0.040598325 -0.010888605 -0.035242032
0.013673661 -0.02459729 -0.044173244 -0.029102001 0.018560773 -0.031302154 -0.066467635 -0.03575338
-0.00984349 -0.014910051 -0.0041385237 0.0040852753 0.040782124 0.02429272 0.052824326 0.019046595
0.031650644 -0.05198362 -0.020580135 0.037590027 0.015849786 -0.008402951 7.5247284e-05 -0.012311994
-0.043040983 0.020253763 -0.036784705 0.0039731553 0.013012943 0.034104697 -0.013418577 0.008908754
0.053897426 -0.025795091 -0.03850551 -0.06772953 0.02348679 -0.016133333 -0.05645066 -0.019465815
-0.042285096 -0.0008937661 0.032253206 0.055630036 0.025304021 0.016746437 0.053297624 -0.021168904
0.018305963 0.008933573 0.052152652 0.011497176 0.044370223 -0.03683878 -0.05000884 0.0054583694
0.033613678 -0.011211856 0.044945072 0.0073681357 -0.03185865 0.005941976 -0.007932019 0.0010715543
0.049788598 0.018888853 0.034414236 -0.023035634 0.049785275 0.018790748 0.003452759 0.033011205
-0.04453017 -0.051193543 -0.008705373 -0.00044649545 0.017937152 0.019418089 0.02594909 0.04011383
0.031554755 0.015943183 0.011018645 -0.052665234 0.031580664 0.050855584 0.04235941 -0.045410827
-0.0032925135 0.008556457 0.029896699 0.049066722 0.054928645 0.04531847 -0.05017286 -0.08452599
-0.03254322 0.0055384375 -0.04778111 -0.026612815 -0.03834241 0.023953121 0.0057350607 -0.025643714
00000000: 90ba 64bc bea9 22bd cf8a bfbb 4229 8a3c
00000010: a2c0 6e3b 3d64 13bd bb06 3fbd 08dd 0a3d
00000020: 5f0e ecbc efca 50bd ac2b 063d 427f 42bd
00000030: d083 213d 130a ebbb 5ea2 d53c 990a a6bc
00000040: 1791 ddb9 4e58 13bc 140a d13b 338f 99bb
00000050: 77ea 843c e718 89bc b016 233d 3438 e33a
00000060: 5645 24bc f95f 9fbd 61db eb3c 32dd 2dbd
00000070: 0592 40bd d85e fabc 72ab 103c 8c48 1abb
00000080: b25e ca3c efdb d3ba dbd8 9c3c 8be1 313d
00000090: 2a7a 22bd ce28 d4bc 7d1c 46bd af42 29bd
000000a0: 2062 073d ff8b c03d e020 913d ff36 6cbc
000000b0: a5a2 843d 41bd 803d 576b 833d afd4 41bd
000000c0: 6c0e 8b3c c26a 36bd 4f4f bb3c febc 1a3d
000000d0: 3675 2b3b 5dc6 0c3c aec5 9b3c 5af6 86bd
000000e0: 74fa e9bc a9b2 efbc 7b2f 583d dd58 123d
000000f0: b7a0 3bbd 3696 803c c9ea 1d3c a371 b93c
00000100: 8b68 953d 2fc5 03bc 3b71 963b 9542 a6bc
00000110: a3e8 15bc fe00 67bc 8dc9 97bc 4878 103d
00000120: fb5c 51bb 0ec6 e4bc e65f a8bc 7518 c2bc
00000130: 7193 873d 93b0 7abb 7fc5 c9bc 57c3 293d
00000140: 1a3e 15bd 3554 cbbb 3a4a 21bb c7f5 01bd
00000150: 8eae 0dbd b3e4 ebbb 9347 4ebc 8350 2dbd
00000160: 7c4a 043c a16e 913d 7e2f 703c 1f05 e4bb
00000170: eb2c 2fbd f506 12bd c2b0 b23c 5d4f 8b3c
00000180: 3190 e0bc 537f dfbc 55bd 4abc 9d9b 31bc
00000190: 6f40 4d3d d89d ad3c becb 55bd cb6f 763b
000001a0: 7e42 4bbc 9e2f 4cbd 7aaa 07bc c83e f93c
000001b0: 4988 1d3d 7c13 083d 88ba 8ebb a54f 6ebc
000001c0: a5e2 4ebc 0783 03bd 25b6 abbc c51d a6bd
000001d0: 31a3 d73c 7d1a 09bc 15f5 efbc 347d 4e3d
000001e0: 1add 4d3c 4c0c 7fbd 9d46 71bd c5e9 323d
000001f0: 998b e1bc cf57 963d 610c 663d 146d 813d
00000200: 914d a2bc c481 28bd f4af 47bc 0c2b 433d
00000210: 9ea5 9abc 0ffb d1bc fbb8 e93c 8b66 d93c
00000220: d548 463d 89f1 833d 62da bc3c 2379 22bd
00000230: 9ec4 b0bc f375 b03b 9c19 b8bc 4c10 81bd
00000240: 3a74 633d 67e7 6bbb 61b9 9dbd 0db9 02bc
00000250: 414a 713d 6e4a 263d 1f66 32bc f359 10bd
00000260: 7e07 603c 4280 c9bc 01ef 34bd 5267 eebc
00000270: c30c 983c b036 00bd 2f20 88bd 2372 12bd
00000280: 9746 21bc 4949 74bc 749c 87bb c6dd 853b
00000290: 280b 273d 8701 c73c 525e 583d 9b07 9c3c
000002a0: 1ba4 013d c7ec 54bd ac97 a8bc 00f8 193d
000002b0: 69d7 813c 88ac 09bc 14ce 9d38 3fb8 49bc
000002c0: be4b 30bd 38eb a53c 8fab 16bd 3e31 823b
000002d0: 3d34 553c 5eb1 0b3d 97d9 5bbc 06f6 113c
000002e0: 8cc3 5c3d 3a50 d3bc f4b7 1dbd c8b5 8abd
000002f0: 5e67 c03c 0d2a 84bc cf38 67bd c676 9fbc
00000300: 2333 2dbd a14b 6aba f01b 043d 52dc 633d
00000310: 614a cf3c d32f 893c 9c4e 5a3d 696a adbc
00000320: 63f6 953c 1f5e 123c 059e 553d a75e 3c3c
00000330: 8dbd 353d 43e4 16bd 12d6 4cbd 1fdc b23b
00000340: 7fae 093d efb1 37bc 5318 383d 6770 f13b
00000350: 377e 02bd e8b4 c23b 4df5 01bc 6573 8c3a
00000360: 21ef 4b3d ccbc 9a3c f1f5 0c3d 3ab5 bcbc
00000370: a5eb 4b3d 0eef 993c af47 623b c236 073d
00000380: 4465 36bd 52b0 51bd fba0 0ebc 9b17 eab9
00000390: eff0 923c af12 9f3c 3093 d43c 664e 243d
000003a0: 8f3f 013d 479b 823c 8c87 343c 80b7 57bd
000003b0: ba5a 013d f24d 503d 1081 2d3d b400 3abd
000003c0: 36c7 57bb 6230 0c3c ece9 f43c 30fa 483d
000003d0: dcfc 603d dc9f 393d 0f82 4dbd f61b adbd
000003e0: 0a4c 05bd c87b b53b 20b6 43bd 1e03 dabc
000003f0: ee0c 1dbd 5639 c43c 2ded bb3b c412 d2bc

Linear.bias f4 [336]
-0.10560073 -0.059061825 -0.054374307 -0.060447074 -0.02156209 -0.08891463 -0.123300746 -0.050452802
0.013428964 -0.0184928 -0.031099424 -0.048699792 -0.07971231 -0.06315532 -0.0511428 -0.09365901
-0.0648195 -0.067614645 -0.11291693 0.017439935 -0.0774093 -0.11717723 -0.083801284 -0.052013204
-0.015188708 -0.004090179 -0.063229874 -0.06325894 -0.1320814 -0.008107176 -0.026788156 -0.04428597
-0.07815458 -0.07698494 -0.147853 -0.0808706 -0.047777936 -0.019626036 -0.03225721 -0.15027465
-0.070164606 -0.13452575 -0.08935423 -0.04223819 0.026787877 -0.06435424 -0.065590575 0.023550345
0.028959239 -0.030548522 -0.11140978 -0.10539204 -0.10324526 -0.06857094 -0.104759276 -0.09668757
-0.034537766 -0.0466682 0.03766599 -0.115187876 -0.06152424 -0.012970037 -0.006101221 0.006942392
-0.10060603 -0.027578382 -0.12543295 -0.111327335 -0.057932947 -0.09957876 -0.00050080655 -0.06276337
-0.06385126 -0.032597892 -0.084553234 -0.10239487 -0.09221758 -0.110887185 -0.14446841 -0.0785141
-0.10829996 -0.061750285 -0.02979525 -0.003975266 -0.05185114 -0.07689147 -0.104206406 0.0166503
-0.01983472 -0.00064144755 -0.080448486 -0.066040546 -0.14661841 -0.08420409 -0.120204255 -0.033362642
-0.044283282 -0.10838646 -0.026806703 0.043827634 -0.11309582 -0.06762521 0.005370347 -0.16692585
-0.09026572 -0.10929344 -0.13087267 -0.07532753 -0.09976819 -0.10916036 -0.035268936 -0.03616444
-0.036285773 -0.066719174 0.002966106 -0.10039254 -0.12649669 -0.06452099 -0.051243734 -0.01297386
-0.026660727 0.032177057 -0.066460334 -0.123242885 -0.024290068 -0.045943767 -0.07743288 -0.040821593
-0.048928123 -0.06435303 -0.0460738 -0.086006485 0.005583274 -0.015019526 -0.068690024 -0.04295563
-0.08345148 0.014040618 -0.0017590256 -0.103105135 -0.10201272 -0.07753828 -0.079637006 -0.029921168
-0.09440018 -0.13844751 0.0061253766 -0.08172124 -0.044074178 -0.12599717 -0.10361349 -0.11141302
-0.07628041 -0.0073138378 -0.09382393 -0.043563653 -0.075058185 -0.0038858224 -0.075684324 -0.05156334
-0.06641882 -0.08906978 -0.0036817095 -0.030234072 -0.06816536 0.04459543 -0.022974165 -0.059715312
-0.011450494 0.004721157 -0.018578278 -0.008651069 -0.028360004 -0.11803432 -0.045790263 -0.05525494
-0.04616745 -0.112251304 -0.092863314 -0.014678605 -0.054074388 -0.08197953 -0.016117929 -0.059970483
-0.07654298 -0.029927453 -0.038182706 -0.036939267 -0.06604853 -0.0023628133 -0.02908538 -0.039760366
-0.035658818 -0.11199334 -0.06269357 -0.052308522 -0.119135335 -0.08510337 0.0058690454 -0.03457182
-0.050153606 0.027009927 -0.029128548 -0.039586905 -0.1473416 -0.07508866 -0.09939982 -0.09174548
-0.015506122 -0.03377163 0.0023667272 -0.024699245 -0.01226913 -0.13424538 -0.013435324 -0.12875837
-0.072416246 -0.13196085 -0.10816291 -0.08705556 -0.114505515 -0.108409256 -0.0848607 -0.07001205
-0.051378816 -0.11284154 -0.11380804 -0.111086994 -0.08816059 -0.052993923 -0.085396335 -0.09414766
-0.10139122 0.018867103 -0.04933082 -0.085219175 -0.12061684 -0.045587648 0.0058755116 0.008929182
-0.06364816 -0.040914733 -0.09228416 -0.08362728 0.03945086 -0.039462805 -0.013732436 -0.036153443
-0.054080687 -0.122118235 -0.039973807 -0.046260558 -0.0040502665 -0.052295197 -0.06560737 -0.11958332
00000000: 3245 d8bd d0ea 71bd 98b7 5ebd 5a97 77bd
00000010: fba2 b0bc e018 b6bd 1a85 fcbd 99a7 4ebd
00000020: 2805 5c3c 367e 97bc 38c4 febc 6f79 47bd
00000030: 3540 a3bd 9457 81bd 1d7b 51bd 4cd0 bfbd
00000040: 16c0 84bd 8c79 8abd fe40 e7bd 32de 8e3c
00000050: c488 9ebd 9efa efbd 02a0 abbd cc0b 55bd
00000060: 0fda 78bc e906 86bb aa7e 81bd e78d 81bd
00000070: 5940 07be f6d3 04bc d672 dbbc 3565 35bd
00000080: 820f a0bd 48aa 9dbd c766 17be 7c9f a5bd
00000090: ccb2 43bd c8c6 a0bc 2320 04bd 99e1 19be
000000a0: 76b2 8fbd 1ec1 09be 5aff b6bd f401 2dbd
000000b0: 4072 db3c 28cc 83bd 5a54 86bd a7ec c03c
000000c0: ed3b ed3c e540 fabc d02a e4bd c8d7 d7bd
000000d0: 4072 d3bd ec6e 8cbd 088c d6bd 2204 c6bd
000000e0: 7977 0dbd 2827 3fbd a747 1a3d 9fe7 ebbd
000000f0: d700 7cbd 4780 54bc c0ec c7bb 017d e33b
00000100: 890a cebd 0fec e1bc 7f71 00be 96ff e3bd
00000110: 194b 6dbd f3ef cbbd 8f48 03ba 158a 80bd
00000120: 73c4 82bd 5e85 05bd 3f2a adbd 67b4 d1bd
00000130: 92dc bcbd d218 e3bd 87ef 13be 00cc a0bd
00000140: 5fcc ddbd deed 7cbd 2b15 f4bc f342 82bb
00000150: dc61 54bd 4679 9dbd 2b6a d5bd 3666 883c
00000160: 6c7c a2bc d126 28ba 2dc2 a4bd 4440 87bd
00000170: 2323 16be 3273 acbd a62d f6bd 44a7 08bd
00000180: 6362 35bd b8f9 ddbd bb99 dbbc 9b84 333d
00000190: c89e e7bd 167f 8abd bcf9 af3b 9cee 2abe
000001a0: 3cdd b8bd 3dd5 dfbd 7c03 06be 5245 9abd
000001b0: 4453 ccbd 788f dfbd 2976 10bd 2a21 14bd
000001c0: 64a0 14bd 10a4 88bd 0063 423b 9b9a cdbd
000001d0: 5988 01be 9523 84bd f3e4 51bd 5090 54bc
000001e0: 9967 dabc 17cc 033d 5b1c 88bd c466 fcbd
000001f0: f7fb c6bc 882f 3cbd 2195 9ebd 8b34 27bd
00000200: db68 48bd 85cb 83bd e2b7 3cbd 2b24 b0bd
00000210: e6f3 b63b 7514 76bc 5bad 8cbd 3ef2 2fbd
00000220: 9ce8 aabd 9f0a 663c 1b8f e6ba c928 d3bd
00000230: 0cec d0bd 64cc 9ebd ba18 a3bd 3d1d f5bc
00000240: e254 c1bd 2fc5 0dbe 62b7 c83b 775d a7bd
00000250: 2087 34bd 6705 01be 4f33 d4bd 822c e4bd
00000260: e738 9cbd eba8 efbb c326 c0bd cd6f 32bd
00000270: 1bb8 99bd 48a9 7ebb 6200 9bbd 1534 53bd
00000280: 9706 88bd 386a b6bd d648 71bb 72ad f7bc
00000290: 489a 8bbd b3a9 363d 5134 bcbc 0b98 74bd
000002a0: da9a 3bbc efb3 9a3b 7931 98bc 37bd 0dbc
000002b0: 3d53 e8bc fabb f1bd 928e 3bbd 0153 62bd
000002c0: 141a 3dbd 03e4 e5bd 1f2f bebd 887e 70bc
000002d0: 1b7d 5dbd e2e4 a7bd bf09 84bc 9ca3 75bd
000002e0: 91c2 9cbd 6b2a f5bc 7865 1cbd a14d 17bd
000002f0: 7444 87bd 6ed9 1abb 7644 eebc c4db 22bd
00000300: fb0e 12bd c45c e5bd 7d65 80bd 7641 56bd
00000310: 3afd f3bd ad4a aebd 1f51 c03b 2e9b 0dbd
00000320: de6d 4dbd ec43 dd3c fe9e eebc e125 22bd
00000330: b7e0 16be 15c8 99bd 2292 cbbd 0ee5 bbbd
00000340: 640d 7ebc 1f54 0abd 181b 1b3b 1256 cabc
00000350: 7604 49bc 9f77 09be d51f 5cbc 3cd9 03be
00000360: f84e 94bd bf20 07be 8484 ddbd 2f4a b2bd
00000370: de81 eabd ac05 debd 72cb adbd 7a62 8fbd
00000380: 9872 52bd 7719 e7bd 3114 e9bd 9481 e3bd
00000390: 8a8d b4bd 2810 59bd 46e4 aebd 7dd0 c0bd
000003a0: 33a6 cfbd 2f8f 9a3c 1d0f 4abd 6487 aebd
000003b0: f605 f7bd 1dba 3abd 5d87 c03b b44b 123c
000003c0: f759 82bd 3596 27bd 7aff bcbd c844 abbd
000003d0: 3a97 213d c0a3 21bd 03fe 60bc a215 14bd
000003e0: b683 5dbd 2019 fabd 93bb 23bd b67b 3dbd
000003f0: 19b8 84bb 7d33 56bd 285d 86bd 1ae8 f4bd

Hidden1.weight f4 [24, 336]
0.029276136 -0.055740267 0.012711722 0.050503355 0.01371572 -0.021890648 0.028986616 0.0050078803
0.033711083 -0.037709247 -0.042795613 -0.007557101 -0.027982706 -0.033939637 -0.008746247 0.013990418
0.09125714 0.04662257 -0.031039804 0.05745246 -0.0037475773 0.10288235 0.007020967 0.030347692
-0.0675444 0.06909469 0.032801528 -0.007724555 -0.00790996 0.080113895 -0.03603892 0.020899817
-0.023054615 -0.028211094 -0.012949919 -0.024582181 -0.002084155 0.028534733 -8.289154e-05 0.034187634
0.022638263 0.026570229 -0.033712227 0.03835411 0.03584795 -0.012080387 0.012886568 -0.012660982
-0.016783725 -0.005884141 -0.008819348 0.022214841 0.04549805 -0.019978901 -0.004121624 0.002729762
-0.011361604 0.018084737 0.014688511 -0.017551439 0.0052965116 0.053918667 -0.006029421 -0.0607053
-0.029109059 -0.05378408 -0.039458793 -0.016837187 0.024200559 0.03696067 -0.08456748 -0.026982857
0.027281305 0.02732351 0.02976299 -0.039194208 -0.023214323 -0.0019656138 0.025399862 0.015087213
0.0066206944 0.006737466 0.008668726 0.011122995 -0.08410977 0.010076552 -0.023277324 0.020928487
-0.004989932 -0.031694062 0.014796877 0.01701313 -0.023834942 -0.042296883 0.006230771 -0.0034984215
0.016189387 -0.020092018 -0.021910962 -0.018463952 0.01976654 0.018376397 -0.0202098 0.0017202093
0.010376043 0.02387943 -0.008572632 -0.013430043 -0.043563243 0.0342293 -0.031598244 0.07388435
0.0014313441 0.047394443 -0.03714068 -0.0027602396 0.057527382 0.0151226465 -0.05266902 -0.026112376
-0.000860744 -0.022219457 -0.013145653 0.0065869736 -0.034549728 0.01914745 0.02408417 0.019239902
-0.02305442 0.05765751 0.016940672 0.026950188 -0.039393153 0.012516177 0.010106105 -0.04562761
-0.013157641 0.010842396 -0.008275998 0.05021093 0.028612014 -0.023028372 0.0052673374 0.04537706
0.013242008 0.011954544 0.011359055 -0.027227385 0.034220595 0.091768086 0.016412634 0.01736198
-0.013162073 0.03298521 -0.022951229 -0.043164205 -0.03906184 -0.033122648 -0.03650701 0.006120738
0.018091012 -0.0008070476 0.023365855 -0.04588143 -0.036568332 -0.044721954 -0.013338484 0.024335943
0.0078009996 0.011673176 0.02965748 0.03707457 -0.004215711 -0.03385593 0.054750722 0.006018384
-0.023100158 0.022351671 0.03577487 -0.07039444 0.015085343 0.04360762 0.007950993 0.0006791983
-0.05205423 0.068267286 0.00037389426 -0.027281636 -0.055738315 -0.0066844025 -0.025263619 0.027733916
0.003720262 -0.025094055 0.019409506 0.006194533 -0.001749082 0.033662304 0.048216656 0.007237026
-0.007264685 0.031796645 0.013492921 -0.0423852 0.04893886 -0.04293978 0.013297978 0.00065422145
-0.048452437 0.014145357 -0.04297653 0.075351335 -0.03543837 -0.028186068 -0.026244737 0.03279789
-0.015885388 0.0014090193 -0.008981701 0.00860827 0.013164931 -0.0039047622 -0.034905534 -0.016534025
-0.0108605595 -0.041565847 0.015004786 0.0012920987 0.020854024 0.03942893 -0.049134403 0.009825937
-0.020769194 -0.0025683993 0.026288595 0.0056201895 -0.043508243 -0.0079890145 0.058183856 -0.024925532
0.023102349 0.030038057 0.06329291 -0.030578064 -0.030468563 -0.052585028 0.045735713 -0.034259
-0.071121044 -0.0207896 0.07328331 -0.009514197 0.009822896 -0.06108605 -0.017812705 0.021219995
00000000: 82d4 ef3c e84f 64bd d444 503c 9bdc 4e3d
00000010: e6b7 603c 0454 b3bc 5775 ed3c 2519 a43b
00000020: a214 0a3d 0375 1abd 744a 2fbd 8fa1 f7bb
00000030: fd3b e5bc 4a04 0bbd 6b4c 0fbc 1138 653c
00000040: 06e5 ba3d 4ff7 3e3d 3047 febc 4553 6b3d
00000050: ea99 75bb fbb3 d23d 2410 e63b b99b f83c
00000060: b854 8abd 8481 8d3d e55a 063d 441e fdbb
00000070: c798 01bc c112 a43d 8c9d 13bd 1836 ab3c
00000080: 08dd bcbc f41a e7bc e62b 54bc 9260 c9bc
00000090: 5296 08bb acc1 e93c 0fd6 adb8 5508 0c3d
000000a0: e173 b93c cfa9 d93c d515 0abd 3319 1d3d
000000b0: 4dd5 123d d1ec 45bc 2f22 533c 0270 4fbc
000000c0: 067e 89bc c1cf c0bb 077f 10bc e6fb b53c
000000d0: 2a5c 3a3d cbaa a3bc b00e 87bb cfe5 323b
000000e0: 0526 3abc 7126 943c 15a8 703c 09c8 8fbc
000000f0: 5c8e ad3b d2d9 5c3d 7392 c5bb 1fa6 78bd
00000100: 1f76 eebc b24c 5cbd 8b9f 21bd 24ee 89bc
00000110: 4040 c63c 1264 173d b731 adbd 270b ddbc
00000120: 0b7d df3c 8ed5 df3c 84d1 f33c 1b8a 20bd
00000130: f72b bebc 87d1 00bb 5f13 d03c 5c30 773c
00000140: 69f2 d83b f6c5 dc3b 4607 0e3c 393d 363c
00000150: be41 acbd 1f18 253c 16b0 bebc 3872 ab3c
00000160: 9582 a3bb a2d1 01bd 9a6e 723c 1f5f 8b3c
00000170: 7f41 c3bc 7f3f 2dbd 7f2b cc3b c645 65bb
00000180: 9b9f 843c 0498 a4bc 9e7e b3bc b741 97bc
00000190: 70ed a13c 198a 963c 068f a5bc a578 e13a
000001a0: 4700 2a3c cb9e c33c 3a74 0cbc af09 5cbc
000001b0: 5f6f 32bd 0634 0c3d 296d 01bd ae50 973d
000001c0: f09b bb3a ad20 423d d320 18bd 23e5 34bb
000001d0: d5a1 6b3d fac4 773c 78bb 57bd 9fe9 d5bc
000001e0: 8da3 61ba 9405 b6bc dd60 57bc 8ad7 d73b
000001f0: 0484 0dbd 1ddb 9c3c 2a4c c53c 009d 9d3c
00000200: 9fdc bcbc 482a 6c3d 2ac7 8a3c a4c6 dc3c
00000210: b75a 21bd a710 4d3c 1494 253c 04e4 3abd
00000220: 2593 57bc 4ea4 313c 0d98 07bc faa9 4d3d
00000230: be63 ea3c ffa5 bcbc a199 ac3b 4cdd 393d
00000240: 02f5 583c fedc 433c 541b 3a3c f70b dfbc
00000250: e52a 0c3d e8f0 bb3d ca73 863c b63a 8e3c
00000260: bca5 57bc 801b 073d 3704 bcbc f3cc 30bd
00000270: 4fff 1fbd 9dab 07bd 6088 15bd 7990 c83b
00000280: 9a33 943c 0c90 53ba c069 bf3c 2bee 3bbd
00000290: adc8 15bd 5e2e 37bd a889 5abc 2c5c c73c
000002a0: 879f ff3b d940 3f3c 3ef4 f23c 81db 173d
000002b0: f223 8abb 84ac 0abd 4b42 603d dd35 c53b
000002c0: 8b3c bdbc da1a b73c ac88 123d f62a 90bd
000002d0: 8428 773c e79d 323d e244 023c 3a0c 323a
000002e0: d136 55bd b8cf 8b3d 3d07 c439 bd7d dfbc
000002f0: dc4d 64bd d508 dbbb a6f5 cebc 3d32 e33c
00000300: a4cf 733b 0c92 cdbc af00 9f3c 82fb ca3b
00000310: 7441 e5ba 7ce1 093d d47e 453d 9324 ed3b
00000320: 980c eebb 333d 023d 6a11 5d3c 1a9c 2dbd
00000330: 1d74 483d 9fe1 2fbd c3df 593c 0f80 2b3a
00000340: 1076 46bd edc1 673c 2808 30bd cd51 9a3d
00000350: d327 11bd 78e6 e6bc 34ff d6bc 1557 063d
00000360: 1322 82bc d8ae b83a fc27 13bc b409 0d3c
00000370: b9b1 573c 0ae7 7fbb 1bf9 0ebd 5d72 87bc
00000380: 7df0 31bc f340 2abd a2d6 753c a35b a93a
00000390: 0fd6 aa3c 3b80 213d 2841 49bd f8fc 203c
000003a0: 2824 aabc 9752 28bb 2e5b d73c 9129 b83b
000003b0: b335 32bd 5be4 02bc 3252 6e3d a130 ccbc
000003c0: 2341 bd3c 5f12 f63c b79f 813d d97e fabc
000003d0: 3599 f9bc 6663 57bd 5f55 3b3d 2a53 0cbd
000003e0: e9a7 91bd f44e aabc 8f15 963d 6fe1 1bbc
000003f0: 36f0 203c 5e35 7abd f3eb 91bc 8ed5 ad3c

Hidden1.bias f4 [24]
0.0033551725 -0.028136805 0.007060266 -0.043234866 -0.040244456 -0.005857888 -0.0014268016 -0.023967441
-0.0006099907 -0.041363172 -0.012790622 -0.0129612 -0.034225896 -0.03641456 -0.03232301 -0.031323142
-0.01209288 -0.014748586 0.0055386513 0.015604458 0.011532784 -0.03853294 0.01232285 -0.012259999
00000000: 74e2 5b3b 287f e6bc ce59 e73b 0b17 31bd
00000010: 5fd7 24bd 87f3 bfbb 8403 bbba 5e57 c4bc
00000020: c8e7 1fba 6e6c 29bd c28f 51bc 375b 54bc
00000030: 7430 0cbd 6f27 15bd 2265 04bd b24c 00bd
00000040: 3721 46bc 0ea4 71bc 937d b53b d7a9 7f3c
00000050: 01f4 3c3c b7d4 1dbd c7e5 493c 2ade 48bc

revin_layer.affine_weight f4 [7]
0.6082487 0.3997216 0.59812135 0.31448078 0.92869455 0.85726863 0.5145377
00000000: 30b6 1b3f 4fa8 cc3e 7b1e 193f a003 a13e
00000010: edbe 6d3f f575 5b3f beb8 033f

revin_layer.affine_bias f4 [7]
-0.009080345 -0.004064894 -0.009499438 -0.011674166 -0.047334652 0.06371437 -0.005602847
00000000: bac5 14bc cd32 85bb 88a3 1bbc 0045 3fbc
00000010: fbe1 41bd ae7c 823d 1698 b7bb
